raven/src/nets/mnist_conv_small_standard.onnx (onnx, 359438 bytes, 8 tensors)

1.bias f4 [16]
-1.5471502e-05 -2.4304354e-05 3.8012422e-05 -6.520278e-06 -1.00352935e-07 6.3255784e-06 8.247685e-06 -5.8072965e-05
1.24622675e-05 -2.59072e-07 -1.1246189e-05 -8.616946e-07 1.6590184e-05 1.3711477e-05 -1.2969542e-07 2.0211376e-06
00000000: ccc8 81b7 34e1 cbb7 876f 1f38 c3c8 dab6
00000010: 9c81 d7b3 4e40 d436 8a5f 0a37 5f93 73b8
00000020: 0815 5137 9616 8bb4 04ae 3cb7 344f 67b5
00000030: 262b 8b37 580a 6637 6842 0bb4 e1a2 0736

1.weight f4 [16, 1, 4, 4]
0.0013538002 -0.004733085 -0.0054322337 -0.0015737569 -0.0028817956 -0.0064280066 -0.00248442 0.0019478603
-0.0039358926 -0.0045610853 -1.0727366e-05 0.0010372074 -0.0073587494 -0.0044711535 0.0011073042 0.00039555802
-0.0057557346 -0.014832172 -0.01877409 -0.0048758266 -0.058347642 0.16678952 0.00880737 -0.02148554
0.15173435 1.7326802 0.21529642 -0.0071917837 -0.003396011 0.1658408 -0.034965307 0.0008402644
0.0022666869 -0.0136358645 -0.026219262 -0.022325909 -0.005034658 -0.0536457 0.17379816 0.0049459795
-0.004692421 0.20043692 2.1610856 0.20526972 -0.01814423 -0.00015240653 0.19943519 -0.050013736
-0.0031104153 -0.0046142167 -0.00735111 -0.023891881 -0.00944039 -0.0111565925 -0.03818963 0.107143015
0.003264377 -0.020281887 0.13629398 1.1598241 0.01349579 -0.0010177303 0.015610602 0.079421
-0.00042795317 -0.0004963501 -0.00025620728 -0.00066182466 0.00060156814 0.00022372567 0.00012483596 -0.00018097185
0.0004552408 -0.00025849923 -0.0008264964 0.00018229584 -0.00050375256 -4.724389e-05 2.173763e-05 -0.00027784336
-0.004885551 6.0146107e-05 0.0028070586 0.004390119 -0.0042360867 -0.0006885031 0.0024690079 0.0023103699
0.0003057823 0.00021975936 -0.00032832075 0.0013936724 0.001789246 -0.00051083975 -5.18682e-05 0.00013793193
0.00094969146 -0.00073857175 -0.0012461627 -0.0014257443 -0.00022937798 -0.0015229147 -0.0037485354 0.0007870442
-0.0029670806 -0.004239726 -0.0036953876 -0.00042021408 -0.0019906885 -0.0022002482 -0.003673019 0.00083778606
-0.046963967 0.10942119 0.019039348 -0.017507551 0.10805382 1.5046008 0.18330301 -0.015895722
-0.0039100344 0.17758358 -0.046809107 -0.0048601995 -0.003184753 -0.006493989 0.005991813 -0.0037793773
-0.004940817 -0.0056151543 -0.006240488 -0.0058148494 -0.013536474 -0.006608399 -0.009552391 -0.0068872673
-0.008797504 -0.008106742 -0.0103768995 -0.006412584 -0.011158445 -0.013614914 -0.013289014 -0.010818276
-0.0016859405 -0.002179188 -0.0024280418 -0.002216118 -0.0019749147 -0.0023130528 -0.0034445778 5.8013135e-05
-0.0007040818 -0.0030643912 -0.0012946244 0.00013175636 -0.002294576 -0.0030487403 -0.001185004 -0.0006696584
0.005583124 0.0053325226 -0.009548491 -0.009929994 0.0070148213 0.0027642488 -0.023206996 -0.044970736
0.013023435 -0.0025038957 -0.06892307 0.18020384 0.006809309 -0.027371531 0.19016564 1.5552354
0.0012295698 -0.00023416778 -0.00019813696 -0.00068807247 0.00061542133 -0.0011400569 -0.00087349425 -0.0007220758
0.00015781749 -0.000383553 -0.0006656939 0.00024586334 0.000274246 -0.00023861582 -0.00024882404 0.00015873663
-0.0062686964 -0.011577164 -0.014980206 -0.010730671 -0.040360942 -0.037526887 -0.015028163 -0.008255929
0.16256659 -0.013290713 -0.020404456 -0.0044637662 1.1701618 0.1280111 -0.011363974 0.002009647
-0.012609663 -0.069015056 0.1346952 0.013863782 -0.014985918 0.20121223 1.7677014 0.13583612
4.0142946e-05 0.010378373 0.17456742 -0.039818138 0.015428579 -0.010714614 -0.032793287 -0.006941618
0.0058215493 0.0031214445 5.538102e-05 0.0006743783 0.004106139 -0.000984932 -0.0013498908 -0.00023599187
0.0028964959 -2.9552797e-05 -0.0008062771 -0.00039287418 0.0014958024 -0.0020300588 -0.0006921857 -0.0001324478
0.0024447204 -0.00083842094 -0.0014004154 -0.002744468 -0.0007470735 -0.003188133 -0.004023216 -0.0043660332
-0.0014640088 -0.0032688768 -0.004311617 -0.002659594 -0.0021019417 -0.002473624 -0.0031333906 -0.002962753
00000000: ff71 b13a ff17 9bbb e100 b2bb 8546 ceba
00000010: 82dc 3cbb 07a2 d2bb a7d1 22bb 594f ff3a
00000020: a9f8 80bb 2875 95bb b0f9 33b7 e8f2 873a
00000030: aa21 f1bb c182 92bb f722 913a e662 cf39
00000040: 9a9a bcbb a302 73bc 1fcc 99bc 66c5 9fbb
00000050: f0fd 6ebd dfca 2a3e ca4c 103c 7102 b0bc
00000060: 4060 1b3e 77c8 dd3f aa76 5c3e 0ea9 ebbb
00000070: 9c8f 5ebb 2cd2 293e c837 0fbd 3045 5c3a
00000080: b28c 143b f668 5fbc c7c9 d6bc d3e4 b6bc
00000090: c6f9 a4bb 98bb 5bbd 25f8 313e e211 a23b
000000a0: e1c2 99bb 563f 4d3e 3a4f 0a40 3a32 523e
000000b0: 35a3 94bc 51cf 1fb9 bd38 4c3e 34db 4cbd
000000c0: 1cd8 4bbb db32 97bb 95e1 f0bb e8b8 c3bc
000000d0: deab 1abc 24ca 36bc bb6c 1cbd cc6d db3d
000000e0: 28ef 553b 3326 a6bc a690 0b3e 1e75 943f
000000f0: 721d 5d3c 5d65 85ba 9cc3 7f3c 7aa7 a23d
00000100: e75e e0b9 7e1d 02ba 8f53 86b9 4d7e 2dba
00000110: 8eb2 1d3a e797 6a39 66e6 0239 43c3 3db9
00000120: 63ad ee39 2e87 87b9 3ca9 58ba ab26 3f39
00000130: 430e 04ba be27 46b8 3459 b637 81ab 91b9
00000140: f916 a0bb 6445 7c38 a1f6 373b fdda 8f3b
00000150: dfce 8abb a97c 34ba 14cf 213b 9369 173b
00000160: 6851 a039 346f 6639 7722 acb9 e3ab b63a
00000170: 2285 ea3a e0e9 05ba 0e8d 59b8 d2a1 1039
00000180: b7f4 783a b69c 41ba 4856 a3ba 0ae0 baba
00000190: 2f85 70b9 8a9c c7ba fda9 75bb a451 4e3a
000001a0: 5a73 42bb 66ed 8abb 512e 72bb 2e50 dcb9
000001b0: 3676 02bb 0a32 10bb 08b7 70bb df9e 5b3a
000001c0: 4a5d 40bd 3818 e03d 68f8 9b3c ff6b 8fbc
000001d0: 524b dd3d c296 c03f c9b3 3b3e bf37 82bc
000001e0: bf1f 80bb 78d8 353e e8ba 3fbd 4f42 9fbb
000001f0: 4ab7 50bb 87cb d4bb f856 c43b 6eaf 77bb
00000200: 94e6 a1bb 54ff b7bb 027d ccbb 7e8a bebb
00000210: 16c8 5dbc 458b d8bb a281 1cbc 96ae e1bb
00000220: 6823 10bc 24d2 04bc df03 2abc a720 d2bb
00000230: e9d1 36bc 1711 5fbc 2aba 59bc 233f 31bc
00000240: c7fa dcba b5d0 0ebb c81f 1fbb 4a3c 11bb
00000250: 926d 01bb 9696 17bb 6dbe 61bb 2153 7338
00000260: 2192 38ba f4d3 48bb 63b0 a9ba 1428 0a39
00000270: 9960 16bb 60cd 47bb 2352 9bba 048c 2fba
00000280: a3f2 b63b 71bc ae3b 4671 1cbc 6ab1 22bc
00000290: 96dc e53b 6628 353b 991c bebc 3c33 38bd
000002a0: 3f60 553c 6618 24bb 8a27 8dbd 5b87 383e
000002b0: a020 df3b 433a e0bc c8ba 423e f411 c73f
000002c0: 8429 a13a ef8a 75b9 fcc2 4fb9 c35f 34ba
000002d0: 3a54 213a f66d 95ba 35fb 64ba b049 3dba
000002e0: cf7b 2539 9d17 c9b9 f681 2eba 38e7 8039
000002f0: adc8 8f39 f234 7ab9 9974 82b9 8a72 2639
00000300: a369 cdbb 25ae 3dbc 8a6f 75bc b2cf 2fbc
00000310: 8451 25bd cbb5 19bd af38 76bc e043 07bc
00000320: db77 263e 4ac1 59bc 3f27 a7bc c944 92bb
00000330: ddc7 953f 5815 033e f62f 3abc 48b4 033b
00000340: c398 4ebc c457 8dbd 8aed 093e eb24 633c
00000350: 7f87 75bc 940a 4e3e 0a44 e23f a018 0b3e
00000360: 295f 2838 0d0a 2a3c cdc1 323e 5818 23bd
00000370: 27c8 7c3c 598c 2fbc 4152 06bd 8376 e3bb
00000380: b2c2 be3b 2691 4c3b eb48 6838 c3c8 303a
00000390: ca8c 863b d518 81ba d2ee b0ba 9674 77b9
000003a0: 23d3 3d3b 26e8 f7b7 575c 53ba aefa cdb9
000003b0: cd0e c43a bc0a 05bb cc73 35ba b0e1 0ab9
000003c0: 9a37 203b 7ac9 5bba 258e b7ba 88dc 33bb
000003d0: 41d7 43ba ffef 50bb 2fd5 83bb f110 8fbb
000003e0: fce3 bfba a73a 56bb 7748 8dbb 954c 2ebb
000003f0: bbc0 09bb 861c 22bb 9259 4dbb bf2a 42bb

3.bias f4 [32]
-3.815584e-05 -0.00011320237 -2.4276914e-09 1.6764316e-05 -0.00013175215 -6.0493905e-05 -6.332918e-05 6.8897316e-05
-6.395442e-05 -5.3901804e-05 -0.00011427903 -5.937082e-10 -1.9199888e-05 3.428873e-05 -0.00012174042 -7.610767e-07
2.879026e-05 7.722829e-05 6.65793e-05 -6.9409754e-05 0.0001421895 0.00011858642 -5.9535698e-05 1.5609081e-05
-0.00013553053 -8.422981e-05 0.00010201256 8.9251114e-07 -0.00021039465 9.6822205e-08 5.2801794e-09 -0.00012984565
00000000: 8509 20b8 0f67 edb8 66d4 26b1 18a1 8c37
00000010: f326 0ab9 d6ba 7db8 98cf 84b8 f77c 9038
00000020: 451f 86b8 9f14 62b8 16a9 efb8 8032 23b0
00000030: 720f a1b7 3ed1 0f38 e44e ffb8 cb4c 4cb5
00000040: 9d82 f137 9ff5 a138 7da0 8b38 1490 91b8
00000050: b418 1539 99b1 f838 f8b5 79b8 3ff0 8237
00000060: 331d 0eb9 89a4 b0b8 93ef d538 e694 6f35
00000070: 629d 5cb9 92ec cf33 f36c b531 2d27 08b9

3.weight f4 [32, 16, 4, 4]
-0.0048012035 0.00033931644 0.0028304525 -0.000436715 -0.0038609954 0.0035482217 0.0029794113 -0.0010556955
9.287773e-05 0.0027125138 0.0024938988 -0.0030364278 0.0005777866 0.0033814851 -0.00031604237 -0.00069996016
0.0110230725 -0.02179801 0.0014752267 0.037452824 0.038306303 -0.058664177 -0.05822836 0.118948594
0.06093677 -0.106819235 -0.105065346 0.16043597 0.10286029 -0.095191434 -0.12536637 0.09728053
-0.0047224886 -0.021977767 0.027167669 0.003981233 0.012982095 -0.10602001 0.07277369 -0.009325433
0.049288973 -0.26890814 0.14983433 0.04742423 0.035867207 -0.23096302 0.018929709 0.07170646
-0.011335822 0.0026838463 0.029982453 -0.04224003 -0.038325347 -0.040001538 0.0815612 -0.10982749
-0.06365021 -0.068298854 0.10876658 -0.100882985 -0.055647552 -0.08016276 0.061287154 -0.03819086
-0.0002762997 -0.00014661287 -0.00016585317 -0.00017461182 3.8094844e-05 -0.0001264783 -0.0002927474 5.0695257e-05
-6.466262e-05 -9.3199684e-05 -0.00041681319 -0.0002426918 -0.00036778566 -0.00016956967 -0.00035759003 -0.00019481135
-0.0005431405 -0.00011274529 1.921731e-05 0.0016081767 -0.00079230196 3.6912088e-06 0.00076705153 0.0010626962
-2.616672e-06 0.0013831063 0.0014880012 0.0007324192 0.00063859 0.0021156583 5.1169627e-05 -0.00058667245
0.00033428543 -0.00014073652 -0.0011319715 -0.0024313708 -0.00022188103 -0.00037371338 -0.002626797 -0.0020100223
-0.00072633626 -0.0021479574 -0.0020598255 -0.0012290233 -0.00036192426 -0.0021547892 -0.0028111662 -0.0020309614
0.016726103 -0.009969998 0.006361505 0.025820876 0.016661225 -0.022839136 -0.019779127 0.063513316
0.045437004 -0.067354985 -0.08186714 0.14574888 0.10072237 -0.09354375 -0.10522096 0.1214939
0.0013713951 0.00038518678 -0.0034358937 -0.004720414 -0.001128995 -0.0033850437 -0.0016458904 -0.0050169486
-0.0024090803 -0.0041331183 -0.0045127436 -0.0011789084 -0.0036866462 -0.0052209394 -0.003063771 0.00040773797
7.173071e-05 -0.00037540248 0.0001296306 0.0006295219 7.022893e-05 -0.00040695223 0.00052810163 0.0005141415
-5.9054473e-06 5.679995e-05 0.0007295569 0.0009327103 2.9041828e-05 0.0008990598 0.0001745526 0.000966802
-0.02133877 -0.020442959 0.05726153 -0.079536006 -0.06005227 -0.0808325 0.14162622 -0.13376893
-0.08532818 -0.10336991 0.12095681 -0.09240961 -0.06698149 -0.11318489 0.06454621 -3.2106578e-05
-0.00019577719 -0.00032353774 -0.00027835908 7.336401e-05 -0.00015041376 -0.00027253234 3.322477e-05 0.0001757092
0.000105353574 -0.0003059444 0.00015578608 0.00034867844 0.00024731932 -0.00022845087 -0.00020814886 -0.00017534295
0.021691732 0.0055096652 -0.027567314 0.029626492 0.029051622 0.012340618 -0.1016965 0.06835073
0.073311225 0.039272577 -0.1340334 0.062238913 0.073518045 0.016519442 -0.1459747 -0.0034718933
0.00094785384 0.014329233 0.025097327 0.010107111 0.011564577 -0.046367187 0.04102269 0.0037320869
0.02131809 -0.16786154 0.09986058 0.039742276 0.05741105 -0.21057104 0.07904419 0.05544986
1.2814179e-05 -0.0011207286 -0.0019620091 -0.0018163776 0.00016512097 -0.0012497696 -0.0010568915 -0.0011277753
0.0004191538 9.375347e-05 -0.00011075213 -0.00083120575 0.00023670061 0.00027619413 -0.0013644127 -0.0017544434
0.0023044108 0.004133206 0.0018648374 0.0032057026 0.0022825734 -0.00039566992 -0.0005967867 0.0031865418
-0.0010494371 -0.0051207365 -0.002908567 -0.0021568465 -0.0006509284 -0.0005930129 -0.003674542 -0.002831494
00000000: 6a53 9dbb 48e6 b139 1d7f 393b e5f6 e4b9
00000010: c108 7dbb 4889 683b 3a42 433b 435f 8aba
00000020: 5ac7 c238 6ec4 313b ae70 233b cefe 46bb
00000030: 9a76 173a e89b 5d3b 7db2 a5b9 887d 37ba
00000040: 1e9a 343c be91 b2bc 655c c13a 2268 193d
00000050: 12e7 1c3d d949 70bd dc80 6ebd 529b f33d
00000060: d698 793d 0bc4 dabd 802c d7bd 5449 243e
00000070: 6aa8 d23d baf3 c2bd 0b60 00be 043b c73d
00000080: 1bbf 9abb b80a b4bc bb8e de3c 0175 823b
00000090: dab2 543c 0521 d9bd 5f0a 953d b3c9 18bc
000000a0: 3ce3 493d 54ae 89be 2c6e 193e e93f 423d
000000b0: 7ee9 123d 9281 6cbe 7a12 9b3c d6da 923d
000000c0: e2b9 39bc 78e3 2f3b c39d f53c e203 2dbd
000000d0: 0afb 1cbd a7d8 23bd 8f09 a73d 3ced e0bd
000000e0: 0b5b 82bd 45e0 8bbd 03c1 de3d bd9b cebd
000000f0: b0ee 63bd 602c a4bd 3d08 7b3d 056e 1cbd
00000100: 51dc 90b9 18bc 19b9 dfe8 2db9 0118 37b9
00000110: 07c8 1f38 439f 04b9 e47b 99b9 9ea1 5438
00000120: 7b9b 87b8 3374 c3b8 b887 dab9 167b 7eb9
00000130: 5bd3 c0b9 83ce 31b9 ec7a bbb9 4646 4cb9
00000140: 8b61 0eba ab71 ecb8 dc34 a137 75c9 d23a
00000150: 7cb2 4fba 7cb6 7736 f513 493a 2b4a 8b3a
00000160: 159a 2fb6 5949 b53a 0909 c33a d2ff 3f3a
00000170: 0d67 273a dba6 0a3b f89e 5638 ecca 19ba
00000180: 0843 af39 ac92 13b9 a95e 94ba a257 1fbb
00000190: bca8 68b9 f6ee c3b9 5726 2cbb 94ba 03bb
000001a0: 9a67 3eba bfc4 0cbb 23fe 06bb 2e17 a1ba
000001b0: a7c0 bdb9 5d37 0dbb 8b3b 38bb e119 05bb
000001c0: 2e05 893c 3459 23bc 2c74 d03b 4d86 d33c
000001d0: 1f7d 883c 2419 bbbc d607 a2bc 4513 823d
000001e0: 271c 3a3d 69f1 89bd f6a9 a7bd 323f 153e
000001f0: 8847 ce3d de93 bfbd 167e d7bd cbd1 f83d
00000200: 62c0 b33a e5f2 c939 bb2c 61bb b4ad 9abb
00000210: c9fa 93ba 9cd7 5dbb ebba d7ba 3765 a4bb
00000220: a9e1 1dbb 1c6f 87bb a3df 93bb 9a85 9aba
00000230: a99b 71bb 6a14 abbb 8cc9 48bb aac5 d539
00000240: 226e 9638 abd1 c4b9 73ed 0739 8006 253a
00000250: df47 9338 345c d5b9 4d70 0a3a 74c7 063a
00000260: 6827 c6b6 7b3c 6e38 bc3f 3f3a 2181 743a
00000270: da9e f337 e2ae 6b3a 1b08 3739 fc70 7d3a
00000280: a5ce aebc fe77 a7bc 118b 6a3d c6e3 a2bd
00000290: 5ef9 75bd 828b a5bd 7706 113e b9fa 08be
000002a0: 8ac0 aebd 9ab3 d3bd 34b8 f73d 4041 bdbd
000002b0: 972d 89bd 7bcd e7bd ce30 843d 2daa 06b8
000002c0: 8a49 4db9 80a0 a9b9 b9f0 91b9 01db 9938
000002d0: 63b8 1db9 ace2 8eb9 d35a 0b38 943e 3839
000002e0: 45f1 dc38 2a67 a0b9 825a 2339 d4ce b639
000002f0: a3aa 8139 508c 6fb9 8942 5ab9 44dc 37b9
00000300: dcb2 b13c 6c8a b43b d9d4 e1bc 42b3 f23c
00000310: abfd ed3c 4e30 4a3c 4146 d0bd 78fb 8b3d
00000320: 3224 963d 48dc 203d 0d40 09be 3bee 7e3d
00000330: a190 963d c853 873c 647a 15be b488 63bb
00000340: 6579 783a 29c5 6a3c e998 cd3c 4c98 253c
00000350: 5a79 3d3c 85eb 3dbd 6807 283d 0796 743b
00000360: 46a3 ae3c e5e3 2bbe b483 cc3d ccc8 223d
00000370: d927 6b3d ef9f 57be ece1 a13d 641f 633d
00000380: 7bfc 5637 69e5 92ba 0d95 00bb 8513 eeba
00000390: 5324 2d39 4fcf a3ba 6587 8aba dcd1 93ba
000003a0: dfc1 db39 839d c438 9943 e8b8 46e5 59ba
000003b0: d632 7839 26ce 9039 18d6 b2ba 5af5 e5ba
000003c0: 9905 173b d86f 873b 8f6d f43a c416 523b
000003d0: 3a97 153b eb71 cfb9 ad71 1cba 4dd5 503b
000003e0: 448d 89ba dacb a7bb a89d 3ebb e159 0dbb
000003f0: 11a3 2aba 6c74 1bba 96d0 70bb 9690 39bb

6.bias f4 [100]
4.866289e-05 0.00016920557 0.0001016341 -1.7972556e-05 0.00011574022 -8.879901e-05 5.4686097e-05 -5.1362904e-06
0.00011094398 -3.2404958e-05 -7.109769e-05 -7.755317e-05 0.00022036127 2.9274718e-06 5.9268976e-16 -0.00012676146
-0.0002122203 1.5904929e-31 0.00015906699 -2.327207e-05 0.00027572026 -0.00026268762 1.0608822e-22 3.2152366e-05
-5.9509508e-05 8.580862e-05 4.5096516e-27 0.00028161122 0.00014557698 -1.0480217e-06 -3.8219183e-05 -4.8877077e-06
8.957418e-05 -0.00019149724 -1.8398369e-14 3.1416297e-05 -2.0993837e-06 -1.6784812e-38 -0.00032382476 -3.3313963e-18
-0.00012681558 4.6422203e-05 7.724326e-05 -1.999145e-05 -7.68361e-05 -8.6414184e-05 -7.3268784e-05 -9.59062e-05
2.6888596e-05 -2.6724848e-16 -0.000143192 0.00016116202 -0.00032911342 3.4127785e-18 0.00030537142 -5.555388e-05
0.00020980847 -2.1743913e-21 -0.0001174003 4.5453777e-05 7.8717196e-05 -2.2239291e-22 -1.73714e-08 -5.8016045e-05
-9.763932e-22 -0.00010982951 0.00017104231 3.102932e-06 -0.00013344229 9.691009e-06 4.3370925e-05 -3.8715083e-05
-8.1940154e-05 7.26878e-05 0.000194491 -9.2901275e-05 0.00013482079 -0.000114448936 1.5644926e-16 -0.00016824571
0.00013036071 1.1686337e-06 0.00018230677 -9.934978e-05 -0.00019008658 1.1624798e-15 -0.00021341954 -0.00016929903
-3.776964e-05 -7.207032e-05 5.974642e-05 -2.4712434e-05 -9.188976e-06 -0.0001959953 -5.946325e-05 1.30456525e-14
-0.00027687877 4.5154193e-05 -5.857297e-05 -6.270435e-05
00000000: 611b 4c38 c66c 3139 6424 d538 c5c3 96b7
00000010: 8fb9 f238 9b39 bab8 c05e 6538 6658 acb6
00000020: 99aa e838 8fea 07b8 481a 95b8 0ba4 a2b8
00000030: c710 6739 9575 4436 c9d4 2a26 45eb 04b9
00000040: 7487 5eb9 3175 4e0c 38cb 2639 6438 c3b7
00000050: 8c8e 9039 56b9 89b9 b740 001b 57db 0638
00000060: d999 79b8 27f4 b338 4da5 b213 38a5 9339
00000070: 06a6 1839 c0a9 8cb5 894d 20b8 1701 a4b6
00000080: c6d9 bb38 a6cc 48b9 c0b7 a5a8 fec4 0338
00000090: 23e3 0cb6 3ac5 b680 06c7 a9b9 4cd0 75a2
000000a0: ccf9 04b9 76b5 4238 a9fd a138 50b3 a7b7
000000b0: 1123 a1b8 4339 b5b8 e1a7 99b8 4021 c9b8
000000c0: d28e e137 ea0e 9aa5 cf25 16b9 9afd 2839
000000d0: db8c acb9 90d1 7b22 421a a039 8602 69b8
000000e0: 0800 5c39 d84a 249d ce34 f6b8 9fa5 3e38
000000f0: f914 a538 a36d 869b 1d38 95b2 4156 73b8
00000100: 628c 939c 4554 e6b8 d259 3339 f73b 5036
00000110: a4ec 0bb9 9196 2237 2de9 3538 0162 22b8
00000120: 49d7 abb8 f76f 9838 48f0 4b39 fed3 c2b8
00000130: ae5e 0d39 4e04 f0b8 ac5f 3425 1d6b 30b9
00000140: 70b1 0839 f3d9 9c35 9a29 3f39 025a d0b8
00000150: fa51 47b9 ef87 a726 5fc9 5fb9 dd85 31b9
00000160: d86a 1eb8 7524 97b8 3b98 7a38 8c4d cfb7
00000170: 5a2a 1ab7 1684 4db9 2e68 79b8 7402 6b28
00000180: 0a2a 91b9 f263 3d38 3fac 75b8 2480 83b8

6.weight f4 [100, 800]
0.00067566975 -0.013256856 -0.013282712 -0.012764122 0.002477241 0.0052726157 0.013534024 0.005882706
0.020833679 0.031683758 0.012118201 0.013365578 -0.001454077 0.021498006 0.025584621 -0.0062584206
-0.0032258497 0.011850922 -0.019354053 -0.003901431 0.0009099173 0.013776161 0.002763989 -0.00952508
-0.005099025 0.0025064482 -0.015240105 -0.014406943 0.02551839 0.019714301 -0.000115491624 -0.011188362
-0.0075102854 -0.037150443 -0.012715406 -0.014235044 -0.024359472 -0.028899033 -0.020012384 -0.049729776
-0.015320956 -0.007750657 -0.01959045 -0.02092005 -0.013994171 -0.008166957 -0.012399901 0.015216553
-0.010243577 -0.0077223657 3.06334e-08 1.423643e-09 4.867064e-11 -4.519128e-11 2.2361764e-09 2.151886e-07
3.4580366e-10 -2.4095257e-09 -1.5484376e-08 1.9127495e-09 6.279673e-08 2.0882448e-08 -1.270838e-08 -1.2382682e-08
7.418113e-09 -6.3320145e-09 -2.0302555e-09 -3.0494668e-08 -8.8559526e-10 9.018704e-09 -4.5878416e-08 1.4984108e-09
-5.640612e-09 2.8945313e-10 2.0300527e-08 -0.0070140446 -0.032808762 0.02193694 0.0736577 0.025834346
-0.023206022 -0.010844121 -0.01769803 0.010244189 0.033387113 -0.0003038152 0.0158501 -0.010610078
-0.03326659 -0.0031809371 -0.012959599 -0.017672997 -0.039278276 -0.04446039 -0.045184724 0.02804641
0.02734611 0.016826667 -0.0074672103 -0.010921402 -0.00079312373 -0.009729049 -0.01446946 -0.005821976
0.0041824454 -0.006096333 -0.003987852 -0.007560444 0.017775757 0.0022197694 -0.00080566056 0.015661161
-0.0025841123 0.022422973 0.033067036 0.007385582 0.011764746 -0.0069358223 0.009828429 0.017200477
0.0039315717 0.0075969645 0.006180771 -0.006532347 -0.002610614 -0.0044552637 -0.01039327 0.034466527
0.018465566 -0.015118348 0.0034333167 0.03221438 0.01310494 0.015896983 -0.007340112 0.009361786
0.017421745 0.0073451092 0.0050088256 0.010812618 -0.008345269 0.013852374 0.021483375 0.012952339
0.018562231 -0.006965312 -0.00049607217 0.0036819233 0.010802103 0.011838607 0.0023137745 -0.019305201
-0.0056866165 -0.00073916215 0.003974616 -0.0049917814 -0.02186497 0.0028901119 0.016922224 0.015939021
-0.01020627 -0.0036404668 -0.00638141 -0.020641249 -0.002985675 -0.0035096046 -0.009028072 -0.015632369
-0.02033418 -0.02004838 -0.0042225337 0.008958391 -0.0074571446 -0.012942433 -0.005934234 -6.318309e-05
-0.0071757045 -0.018010553 0.014862539 0.024449022 -0.0013216074 -0.017558716 -0.03194917 -0.0035757406
0.024070466 -0.011197675 -0.016456211 0.0026081486 -0.011648048 -0.013713705 -0.014360213 -0.025128575
-0.051168613 -0.022485511 -0.040814936 0.00031076182 -0.00038789908 0.0029082766 -0.021303358 -0.00261997
0.0023292408 -0.017482983 0.023832541 0.025769712 0.0073780823 -0.001949313 0.0046037086 0.05888329
-0.0038099007 -0.05243219 0.012926995 0.009581256 0.023132756 0.0070912335 0.016822675 -0.0012600286
0.0021044768 0.00014907199 0.028363911 0.0252442 -0.00093750865 6.56405e-05 0.0194552 0.030224817
0.0052628564 -0.0028256637 -0.0039444873 -0.025927829 0.0022661875 -0.009696513 -0.0006834096 -0.01120981
0.007816682 0.014685437 -0.000210661 0.0036669434 0.03768687 0.047325224 0.05327222 0.042284273
0.013056841 0.03947436 0.0010002072 0.04590134 0.011842438 -0.0019692217 0.01072815 -0.009335693
-0.002211599 -0.0022593655 -0.00026846182 -0.007874306 -0.011793804 0.005424229 -0.00961569 0.0016704062
00000000: 6e1f 313a 4933 59bc bb9f 59bc 9c20 51bc
00000010: 3559 223b e8c5 ac3b d0bd 5d3c b7c3 c03b
00000020: 64ab aa3c d4c6 013d 6b8b 463c 4cfb 5a3c
00000030: ba96 beba 961c b03c d796 d13c 7013 cdbb
00000040: c768 53bb 5f2a 423c 648c 9ebc 27af 7fbb
00000050: 8487 6e3a 68b5 613c 0a24 353b 150f 1cbc
00000060: b915 a7bb 3943 243b a2b1 79bc 190b 6cbc
00000070: f10b d13c e37f a13c 1834 f2b8 644f 37bc
00000080: d718 f6bb 102b 18bd 4754 50bc 1a3a 69bc
00000090: 848d c7bc aabd ecbc 03f1 a3bc 73b1 4bbd
000000a0: bf04 7bbc 39f9 fdbb 277c a0bc 8660 abbc
000000b0: cf47 65bc b3ce 05bc f428 4bbc d94e 793c
000000c0: add4 27bc e60b fdbb c891 0333 fca9 c330
000000d0: 450e 562e dcc0 46ae 3bab 1931 980e 6734
000000e0: 8a1b be2f d394 25b1 8102 85b2 7271 0331
000000f0: deda 8633 fd60 b332 0c54 5ab2 9dbb 54b2
00000100: 69e2 fe31 fd90 d9b1 a284 0bb1 3ef9 02b3
00000110: 3a6e 73b0 aef0 1a32 da0b 45b3 a5f0 cd30
00000120: 59cf c1b1 e820 9f2f 5561 ae32 12d6 e5bb
00000130: 7b62 06bd 19b5 b33c d9d9 963d 8da2 d33c
00000140: 8e1a bebc 8aab 31bc 76fb 90bc 3ed7 273c
00000150: edc0 083d 6349 9fb9 12d8 813c e5d5 2dbc
00000160: 8c42 08bd 4577 50bb 7f54 54bc f6c6 90bc
00000170: 42e2 20bd 191c 36bd 9e13 39bd 96c1 e53c
00000180: f304 e03c 14d8 893c 80af f4bb aeef 32bc
00000190: a2e9 4fba 9766 1fbc 5011 6dbc 46c6 bebb
000001a0: e50c 893b bfc3 c7bb 87ac 82bb 9abd f7bb
000001b0: 779e 913c 8d79 113b f732 53ba d64b 803c
000001c0: 365a 29bb 62b0 b73c 4d71 073d c102 f23b
000001d0: ecc0 403c e545 e3bb 6b07 213c 04e8 8c3c
000001e0: 6ad4 803b f5ef f83b 1188 ca3b 4c0d d6bb
000001f0: d616 2bbb 76fd 91bb 8948 2abc c62c 0d3d
00000200: 1945 973c f3b2 77bc 7f01 613b 3af3 033d
00000210: 1ab6 563c 643a 823c 5285 f0bb 2d62 193c
00000220: 0cb8 8e3c 3eaf f03b 1321 a43b 6827 313c
00000230: 98ba 08bc 11f5 623c e7fd af3c 0c36 543c
00000240: d20f 983c 463d e4bb d70a 02ba 6c4c 713b
00000250: 4efb 303c b7f6 413c b2a2 173b f125 9ebc
00000260: cc56 babb 55c4 41ba 7f3d 823b 1992 a3bb
00000270: 2a1e b3bc 0868 3d3b 7aa0 8a3c 8d92 823c
00000280: 3338 27bc e694 6ebb 261b d1bb d617 a9bc
00000290: 50ab 43bb 6501 66bb 7aea 13bc 740f 80bc
000002a0: de93 a6bc 803c a4bc 2e5d 8abb 37c6 123c
000002b0: 105b f4bb 800c 54bc f673 c2bb 2a81 84b8
000002c0: 2c22 ebbb de8a 93bc 0282 733c 5149 c83c
000002d0: c939 adba 4cd7 8fbc 22dd 02bd f956 6abb
000002e0: 6d2f c53c 7476 37bc 2dcf 86bc 79ed 2a3b
000002f0: 74d7 3ebc 73af 60bc 1947 6bbc 71da cdbc
00000300: 2e96 51bd 8933 b8bc 902d 27bd bfed a239
00000310: ef5e cbb9 c998 3e3b 6184 aebc cdb3 2bbb
00000320: 2da6 183b 7938 8fbc 763c c33c 011b d33c
00000330: d7c3 f13b 1780 ffba b5da 963b 9b2f 713d
00000340: 87af 79bb 23c3 56bd bfcb 533c b3fa 1c3c
00000350: e880 bd3c 945d e83b b5cf 893c 8b27 a5ba
00000360: 43eb 093b 3550 1c39 6f5b e83c edcc ce3c
00000370: 24c3 75ba 7aa8 8938 8360 9f3c 099a f73c
00000380: 0a74 ac3b c52e 39bb c240 81bb 9966 d4bc
00000390: 5184 143b 20de 1ebc d826 33ba 5aa9 37bc
000003a0: 8a11 003c 309b 703c e2e4 5cb9 1a51 703b
000003b0: 8c5d 1a3d 18d8 413d f933 5a3d 4632 2d3d
000003c0: 5cec 553c deaf 213d 6219 833a 0b03 3c3d
000003d0: c906 423c 0f0e 01bb 1fc5 2f3c bcf4 18bc
000003e0: 79f0 10bb dd11 14bb 56c0 8cb9 3c03 01bc
000003f0: cd3a 41bc bbbd b13b 218b 1dbc 88f1 da3a

8.bias f4 [10]
-9.379753e-05 -2.2761908e-05 -9.5908625e-05 0.000116638395 -8.080035e-05 -0.0003513145 0.00015075391 7.2127026e-05
4.804472e-05 0.00022294198
00000000: 2ab5 c4b8 d3f0 beb7 8d22 c9b8 c39b f438
00000010: 5c73 a9b8 a230 b8b9 b213 1e39 e742 9738
00000020: a083 4938 88c5 6939

8.weight f4 [10, 100]
0.28639317 -0.07881758 0.2344662 -0.081422456 0.089833856 -0.04758071 0.12957512 0.07236101
-0.10421684 -0.074926265 -0.02306771 0.13488442 -0.021074213 -0.11477012 -6.246299e-12 -0.023847472
0.18268171 -6.37198e-05 0.054221157 -0.10876861 -0.09489767 -0.2521858 1.8580159e-27 -0.066614434
0.07286318 0.19822165 1.3278406e-13 -0.02788891 -0.0068524326 6.211048e-18 0.14777368 -0.00039424523
-0.06809259 -0.078253135 2.1973518e-20 0.027610986 0.009868492 1.674811e-06 -0.049682066 7.004873e-21
0.012468916 0.060429227 0.12433262 0.057432495 -0.09397306 -0.049762815 -0.1363798 0.03581381
0.050478883 -0.00022694233 -0.16790497 0.19440109 0.08984789 -2.488261e-11 0.12660015 0.06526241
0.017413892 -2.4019185e-13 -0.07876697 0.10870115 0.011986884 4.1102057e-14 4.1528768e-19 0.13383731
2.059e-42 0.29058748 -0.09611046 -0.13556021 -0.09672735 -0.20772815 0.0066510346 -0.16336496
-0.101364166 -0.08627107 -0.08368138 0.0535511 0.13682093 0.12679543 -4.615377e-15 0.20167358
-0.114693835 -0.059184358 -0.028225154 0.3339929 -0.04161861 -4.9795995e-10 -0.07251299 0.095566146
0.076516576 -0.091598384 0.05844509 -0.12535101 -0.19168147 0.12541378 -0.14807339 -1.2943048e-21
-0.063260905 -0.011429873 -0.016403204 -0.14697002 0.15429935 -0.0070690033 -0.059582967 0.0032606334
-0.23070012 0.03368004 0.06403848 -0.006109684 0.071004465 0.011537899 0.33234903 -0.043133743
0.115353435 0.09530987 -7.57517e-15 0.09906327 0.032407656 -0.0022317313 0.048110828 -0.07548821
-0.06411495 0.17123146 9.985522e-19 0.13278565 -0.17619315 -0.102778606 1.076214e-13 -0.103655614
0.063005194 2.3666324e-09 0.33868736 -0.07013348 -0.12218693 0.03222342 -6.3978346e-22 0.016644515
0.18667081 -1.416723e-10 0.32443845 -7.2980993e-23 -0.027269475 -0.1256009 -0.11249612 0.20363414
0.01017925 0.27439985 -0.07260895 0.0067426325 -0.27536035 3.0895906e-06 0.026699936 0.08835697
0.22879514 9.101624e-14 -0.005723499 -0.1132114 -0.031265177 1.1091283e-17 0.08897928 -0.0706793
-0.22267722 -1.1490244e-23 3.4120795e-10 0.107561916 2.215e-42 0.035001945 -0.113543235 -0.048837647
0.05063483 -0.050949052 0.11251712 -0.1593813 0.048360012 0.005722244 -0.038625427 -0.21991874
0.119990215 0.05763039 1.3452385e-24 -0.10956867 0.10335436 -0.018314183 -0.0016717857 0.040166877
-0.082333595 -1.5119052e-11 0.14379478 -0.040473707 0.21281977 0.0655098 -0.17893896 0.093707845
0.022676097 0.1154418 -0.12843128 4.416702e-23 0.124998115 -0.28989592 -0.011728394 -0.030673003
-0.06747871 0.10070956 -0.15774722 -0.08289551 -0.055389397 -0.13681857 -0.07309064 -0.05850176
-0.28069174 -0.29157457 -0.18494357 0.3203221 0.20404954 0.03221525 -1.539535e-11 -0.072524644
0.2948811 0.003385695 -0.032485265 -0.17326094 0.06382674 0.04037834 -5.4747233e-16 0.23195742
0.2348833 0.0065689837 9.8911154e-14 0.11800571 0.28950572 3.0827177e-18 -0.22894157 -0.07277792
-0.038417406 0.18397479 -1.3537618e-21 -0.0037111146 0.19006664 -1.7684262e-05 -0.0080063995 -7.753861e-14
0.19508076 0.033991437 0.060390424 -0.05758723 -0.06544488 0.27611437 0.14199704 -0.009386836
-0.12862311 0.00012874034 0.20504366 0.054844197 -0.07745227 2.0619852e-10 0.08998861 0.057257682
00000000: 20a2 923e 1d6b a1bd e817 703e d1c0 a6bd
00000010: d0fa b73d fee3 42bd 57af 043e 0232 943d
00000020: a36f d5bd f172 99bd 7ff8 bcbc 241f 0a3e
00000030: d4a3 acbc 990c ebbd a9c5 dbac c65b c3bc
00000040: ea10 3b3e 4fa1 85b8 0117 5e3d 14c2 debd
00000050: b659 c2bd 7f1e 81be 0a35 1313 266d 88bd
00000060: 4a39 953d 9efa 4a3e 6680 152a 4977 e4bc
00000070: 5f8a e0bb b125 e522 fc51 173e b3b2 ceb9
00000080: 2174 8bbd 2e43 a0bd b588 cf1e 6f30 e23c
00000090: 75af 213c 11ca e035 6c7f 4bbd 7d51 041e
000000a0: 6d4a 4c3c a384 773d 1aa2 fe3d 563e 6b3d
000000b0: f374 c0bd 18d4 4bbd 25a7 0bbe 80b1 123d
000000c0: f2c2 4e3d 5ef7 6db9 48ef 2bbe 1411 473e
000000d0: 2c02 b83d a8de daad 78a3 013e 4ca8 853d
000000e0: 94a7 8e3c 4b37 87aa 9450 a1bd b59e de3d
000000f0: a364 443c 721b 3929 8024 f520 a60c 093e
00000100: bd05 0000 e2c7 943e 90d5 c4bd 4cd0 0abe
00000110: fd18 c6bd b0b6 54be ecf0 d93b 2549 27be
00000120: 0498 cfbd e3ae b0bd 2561 abbd 6658 5b3d
00000130: c91a 0c3e a9d6 013e 5749 a6a7 8583 4e3e
00000140: 9ae4 eabd 4c6b 72bd 7038 e7bc 1e01 ab3e
00000150: 4778 2abd d1e0 08b0 b181 94bd 2fb8 c33d
00000160: b9b4 9c3d ef97 bbbd 1e64 6f3d 045c 00be
00000170: 2648 44be 786c 003e 8da0 17be fe96 c39c
00000180: ef8e 81bd 5d44 3bbc 0360 86bc 4f7f 16be
00000190: a600 1e3e 19a3 e7bb 450d 74bd 5ab0 553b
000001a0: a73c 6cbe 15f4 093d 9b26 833d be33 c8bb
000001b0: ca6a 913d 7509 3d3c a729 aa3e 02ad 30bd
000001c0: 6c3e ec3d d231 c33d 4e76 08a8 afe1 ca3d
000001d0: e4bd 043d 3d42 12bb dc0f 453d 9099 9abd
000001e0: b34e 83bd 4d57 2f3e 3c5c 9321 f6f8 073e
000001f0: fa6b 34be 977d d2bd 8357 f229 6549 d4bd
00000200: de08 813d 3da2 2231 6e68 ad3e 24a2 8fbd
00000210: 243d fabd b4fc 033d d95c 419c 145a 883c
00000220: a226 3f3e 35c5 1baf cc1c a63e 0c75 b09a
00000230: 3c64 dfbc 869d 00be 5e64 e6bd 7885 503e
00000240: dec6 263c 237e 8c3e 00b4 94bd 4df1 dc3b
00000250: 08fc 8cbe c356 4f36 d3b9 da3c 80f4 b43d
00000260: 4649 6a3e 4af3 cc29 318c bbbb 61db e7bd
00000270: ea0f 00bd 1a99 4c23 c53a b63d 4fc0 90bd
00000280: 7f05 64be ef40 5e99 c094 bb2f 6c49 dc3d
00000290: 2d06 0000 335e 0f3d 5b89 e8bd fc09 48bd
000002a0: 7866 4f3d f4af 50bd 606f e63d da34 23be
000002b0: 2615 463d a981 bb3b b235 1ebd 6132 61be
000002c0: 6ebd f53d d80d 6c3d 632a d017 8a65 e0bd
000002d0: 73ab d33d a007 96bc d21f dbba 0686 243d
000002e0: 849e a8bd 14fd 84ad f03e 133e c2c7 25bd
000002f0: 6ded 593e 012a 863d c63b 37be e6e9 bf3d
00000300: 39c3 b93c c06c ec3d 7d83 03be 1f94 551a
00000310: 03ff ff3d 3d6d 94be 7328 40bc f345 fbbc
00000320: 4732 8abd d040 ce3d 7d88 21be 1fc5 a9bd
00000330: fedf 62bd 2b1a 0cbe 8cb0 95bd 8b9f 6fbd
00000340: d4b6 8fbe 4349 95be d961 3dbe 4201 a43e
00000350: 5df2 503e 23f4 033d 3f6b 87ad cd87 94bd
00000360: a8fa 963e 89e2 5d3b 450f 05bd 516b 31be
00000370: 98b7 823d c263 253d 54cc 1da6 3f86 6d3e
00000380: 3f85 703e a140 d73b 66ba de29 faac f13d
00000390: 183a 943e e476 6322 a96f 6abe 970c 95bd
000003a0: 925b 1dbd e363 3c3e 1f93 cc9c 2c36 73bb
000003b0: d4a0 423e aa58 94b7 462d 03bc f799 aea9
000003c0: 40c3 473e 9b3a 0b3d f35b 773d 96e0 6bbd
000003d0: f707 86bd dd5e 8d3e ac67 113e 3ecb 19bc
000003e0: c7b5 03be 79fe 0639 f7f6 513e 4fa4 603d
000003f0: 4c9f 9ebd b9b7 622f f34b b83d 0887 6a3d
